models/model_FFN2.pt (torch, 815887 bytes, 4 tensors)

1.weight f4 [256, 784]
000000 40 ba 9e bb 95 bf bc bc a6 56 ab 3c 1d 71 0c bd
       -0.00484398 -0.023040572 0.02091534 -0.03428756
000010 a0 77 f0 3a 40 5a 9e 3b 88 93 a8 3c 02 64 bf 3c
       0.0018346198 0.004832536 0.02057816 0.023363117
000020 1c 04 4d bc 72 13 22 bc e6 4f 69 bc 90 4b bc 3c
       -0.012513187 -0.009892331 -0.014240241 0.02298525
000030 39 30 ca 3c 2c 82 32 bc 27 e1 0d bd 2c dd 8e 3c
       0.024681197 -0.010895293 -0.03463855 0.017439447
000040 e0 b9 c7 3b a2 82 df 3c b4 a9 37 3c 40 01 4a ba
       0.006095156 0.02728397 0.011209894 -0.0007705875
000050 bb e9 08 3d 40 a2 4c 3c 4a e6 41 bc 00 6b 7c 3c
       0.033426028 0.012489855 -0.01183469 0.01540637
000060 15 1b bd bc d8 b8 bb 3b 00 96 6c ba 00 ab 8b 3a
       -0.023084203 0.005728822 -0.0009025037 0.001065582
000070 a5 01 ef bc 6e c9 83 3c c6 9d 11 bd 56 68 f5 3c
       -0.029175589 0.01608726 -0.035550855 0.029956978
000080 80 88 80 bc fc 21 12 bd 60 30 ca bc cb ba 0b 3c
       -0.015690088 -0.03567694 -0.02468127 0.008528422
000090 97 99 b5 3c 3c c8 7e bc ba 53 11 bd b3 d1 6e bc
       0.022167964 -0.015550669 -0.03548024 -0.014576363
0000a0 44 7a fb 3c ae 62 6c 3b eb 9f 95 3c ba 08 e1 bc
       0.03069795 0.003606956 0.018264731 -0.027469981
0000b0 19 0a e8 3b 2c f6 25 bc 24 ee cb 3b b8 84 34 bc
       0.007081282 -0.010129493 0.006223457 -0.011017971
0000c0 68 42 02 bd db ee 40 bc 41 e2 97 3c 14 db 4f bc
       -0.03180161 -0.011775698 0.018540503 -0.01268651
0000d0 30 82 97 bb 60 8b 91 3a 06 0b 7f bc a6 6d 3b bc
       -0.004623674 0.0011104159 -0.015566593 -0.011439716
0000e0 6c f2 ba 3c 88 99 8c 3b a8 a3 a3 bc 0b 11 5b bc
       0.022820674 0.0042907633 -0.019975498 -0.013370763
0000f0 8f c2 8e bc 2d 82 8a 3c 9d 10 1e 3c b6 0a d9 3b
       -0.017426757 0.016907776 0.009647516 0.0066235913
000100 eb 38 a0 3c b2 4c 47 3c d9 d1 3e 3c 4e 72 da 3b
       0.01955839 0.012164282 0.011646711 0.006666458
000110 89 38 cb 3c bc cd 1c bc 24 23 6f 3c fe 86 15 3c
       0.024807232 -0.009570535 0.0145957805 0.009126423
000120 5e 2a 3b bc a4 03 d5 3b db 99 d9 bc eb 44 8a 3c
       -0.011423675 0.006500678 -0.026562622 0.016878566
000130 35 4e 9c 3b 55 08 ee 3b 13 7f 97 b9 8c 36 50 bb
       0.004770065 0.007264177 -0.00028895642 -0.0031770794
000140 70 a8 c3 3c 06 6e ff 3c c2 4b b3 3c 82 00 f7 3c
       0.023884028 0.031180393 0.02188671 0.03015161
000150 ae 6d e7 bc fc 28 71 bc 93 b6 fb bb a8 38 fe bc
       -0.028250542 -0.014719244 -0.0076816767 -0.031032875
000160 00 47 1f bc da 21 27 bc b5 e5 04 bd e7 b0 dc bc
       -0.009721518 -0.010200942 -0.03244563 -0.026939822
000170 0c e5 04 bb c9 83 ce 3c 85 92 bb 3c 8b 2f d9 bc
       -0.0020278124 0.025209324 0.022897014 -0.026511928
000180 25 cf 41 bc e2 da a3 3c 50 05 18 bd 99 f4 29 bd
       -0.011829172 0.020001832 -0.03711444 -0.041493032
000190 ab c3 24 bd 93 96 4c 3b 22 f2 9d 3c cc 68 60 bc
       -0.040225666 0.003121768 0.019280497 -0.0136968605
0001a0 06 bc c8 3c a2 dd 8d bc d6 bd 85 3c d3 a9 0c 3b
       0.024503719 -0.017317597 0.016325872 0.0021463528
0001b0 18 71 08 3c 0c b5 31 bb 0a 4d 4f bc 6e 0f 7e bc
       0.008327745 -0.002711597 -0.012652645 -0.015506608
0001c0 ea 76 10 bc 80 de da 3c 8a 80 08 bb 36 c0 29 3b
       -0.008817414 0.026717424 -0.0020828568 0.002590192
0001d0 c3 5e 2b 3b d3 44 0f 3d 55 27 da 3c 41 df 9e 3c
       0.0026149012 0.034977745 0.026630083 0.019393565
0001e0 90 b3 dd 3c d9 d5 58 bc d7 a7 d7 bc 65 92 6b bc
       0.027063161 -0.013234579 -0.02632515 -0.014378165
0001f0 cc c7 b9 3c 96 49 83 bb 9c 3c 05 bc 8f 94 c1 3b
       0.022678278 -0.004006575 -0.008132126 0.005907602
000200 96 a8 83 3c 4d d1 bd 3c 14 b8 e2 3a a7 08 c2 bc
       0.016071599 0.023171091 0.0017297291 -0.023685766
000210 61 ee 30 3b 4a fa c5 3c 15 48 d4 bc 49 35 04 bb
       0.0026997554 0.024167199 -0.025913278 -0.0020173362
000220 41 53 03 3c b1 9c 12 bd 8f 2f a8 3c df 79 ae 3c
       0.008015455 -0.035793964 0.02053049 0.021298347
000230 80 d4 95 39 a6 a5 27 bc 1f b0 93 bc cf 15 34 bc
       0.0002857782 -0.010232365 -0.018028317 -0.010991528
000240 34 e0 46 bb 99 bd ba 3c 98 90 08 bd a3 3f 91 bc
       -0.0030346038 0.022795485 -0.03334102 -0.01773054
000250 ac 28 13 bd be 69 01 bd 51 80 ae 3c b3 a4 aa 3c
       -0.03592746 -0.031594984 0.02130142 0.020830488
000260 5a 95 01 3d ac 83 14 3d bb c1 36 3d 48 44 12 3d
       0.031636573 0.036258385 0.04461835 0.03570965
000270 50 ea 11 3c ac 2f b9 3c 35 34 f1 bc 7d 5e 4f bb
       0.008905962 0.02260574 -0.02944384 -0.0031642013
000280 e2 ad 0b 3d a9 22 07 3d 23 0a 79 bb 8e 75 6b bc
       0.034101374 0.03299204 -0.0038000427 -0.014371289
000290 d4 76 4f 3c 48 c5 f3 3c 14 cf cc 3c 4f 7f 5e bc
       0.012662608 0.029757157 0.025001086 -0.013580157
0002a0 30 24 a7 bc 56 04 01 bc a1 32 d6 3a f6 cf 01 3c
       -0.020402998 -0.007874569 0.0016341993 0.007923117
0002b0 3f dd ab 3c bf c7 f5 bb 77 7a 28 bd 34 57 ee bc
       0.020979522 -0.007500618 -0.041132417 -0.029094316
0002c0 dd 10 4e bc 23 1e b6 bc e0 5f 0d bd c5 02 1e 3c
       -0.012577263 -0.022231167 -0.03451526 0.009644215
0002d0 1b bc 98 3c 36 d3 9b bb 71 d6 d3 bc e7 05 a7 3c
       0.018644383 -0.004755403 -0.02585909 0.020388557
0002e0 7a d9 b9 3c 02 e3 16 bd 12 37 0f ba 00 15 ce ba
       0.022686709 -0.036837585 -0.0005463223 -0.0015722811
0002f0 86 75 68 bc 7f be b8 39 a8 17 98 3c 78 ed 1d 3d
       -0.014188176 0.00035237145 0.018565968 0.038556546
000300 3b ae e8 bc a2 95 75 bc ed 2c fd bc ce 31 d5 3c
       -0.028403392 -0.0149892885 -0.030905211 0.026024725
000310 de 8e 5d bc ed 27 b2 3c fc 66 9a bc ab 94 40 3c
       -0.013522832 0.021747554 -0.018847935 0.011754195
000320 f8 ee bd 3c 47 f0 8d bc a7 13 5f bc d5 f3 11 bd
       0.023185238 -0.017326487 -0.013615525 -0.035632927
000330 76 ab c5 b8 b5 b8 b9 3b 25 12 28 3c a3 d2 81 bd
       -9.425629e-05 0.0056677707 0.010258232 -0.06339004
000340 bb a2 4b bd 67 15 42 bc b2 a1 2c bd 6f 7e a8 39
       -0.04971574 -0.011845923 -0.042146392 0.00032137657
000350 22 12 d9 bc c5 5e 29 bd 6b 0f ca bb 0b af c2 3b
       -0.026497904 -0.041350145 -0.0061663887 0.005941277
000360 31 22 08 3c 55 46 31 bc 53 f0 98 bc 87 a3 61 bc
       0.008308933 -0.010819991 -0.018669283 -0.013771898
000370 43 5a 58 3c 59 12 c2 3c 16 a5 12 bd 5e 5f bb 3c
       0.013205114 0.02369039 -0.03580197 0.022872623
000380 a3 ad fb 3c 7b 36 32 bc 1e d2 fe bc 77 62 cc bc
       0.030722445 -0.010877247 -0.031106051 -0.024949295
000390 c0 8b 8f bb 79 66 05 3d 4b 1e e8 3c f8 f6 e4 bb
       -0.004380673 0.03256843 0.028334757 -0.006987449
0003a0 9e ae a3 bb 11 a9 17 bc e4 8e 87 bc 1d ad d4 bb
       -0.004995181 -0.009256617 -0.016547628 -0.0064903633
0003b0 b6 54 2a bd 2e f4 23 3d b4 4d 09 bd 76 57 d0 3a
       -0.041584693 0.04002779 -0.03352137 0.0015895206
0003c0 66 da 9d bc f5 05 2e bd 20 e1 f1 bb 52 ec e9 bc
       -0.01926918 -0.04248615 -0.0073815733 -0.02855507
0003d0 8d 90 4f bb cd e5 56 3c 3b 90 a0 bc 11 0c 80 bc
       -0.0031671852 0.013116312 -0.019600024 -0.015630754
0003e0 04 ce 8a 3c 08 25 50 bc 04 fa 07 bd 1b 09 59 bb
       0.016943939 -0.012704141 -0.033197418 -0.0033117
0003f0 03 bf 50 3c ad 6f 0f bb 0d 50 09 3d c9 06 0a 3d
       0.012740853 -0.0021886632 0.033523608 0.033697877

1.bias f4 [256]
000000 8e 07 38 bb f7 ed 4c bd a6 8b 6e 3c 11 e8 94 3c
       -0.0028080675 -0.05003163 0.014559662 0.018177064
000010 f7 b2 3e 3d 21 5b be bc fd 4b e4 3d f6 9d 7b 3d
       0.046557393 -0.023236813 0.11147306 0.06142994
000020 2d b3 f9 3b be 25 90 bb 35 a2 41 3c a2 e7 41 3c
       0.0076202364 -0.0043990305 0.011818458 0.011835011
000030 8d fd 7e 3d 6d 16 84 bb 4f 27 30 bc 02 58 cb 3d
       0.062253524 -0.0040309937 -0.010751559 0.099288955
000040 b6 08 e1 3b ec 65 82 3a 2b ae 71 3c 8f 9c 3c bc
       0.0068674935 0.0009948588 0.014750998 -0.011511936
000050 17 06 4f 3d 7b e4 39 bd c1 70 e4 bb 54 34 1e bb
       0.050542917 -0.04538391 -0.006971449 -0.0024140077
000060 ec 2f f2 bc 02 82 73 3c b5 b6 b9 bc 75 4b c7 3b
       -0.029563867 0.014862539 -0.02267013 0.006081993
000070 ac 9a 31 3b 21 87 89 bc 96 e1 b8 3c c8 5b 10 3d
       0.0027100248 -0.016788067 0.022568505 0.03524378
000080 ed af 97 3d d8 cb 0b 3d 3c 5d 64 3c db 08 0f bc
       0.07406602 0.034129947 0.013938244 -0.008730139
000090 3c 99 91 3d 5c e9 04 bd 4a 1d b0 3c 50 53 71 3c
       0.07109305 -0.03244911 0.021498341 0.014729336
0000a0 91 c2 1d 3d 05 8e a6 bd 1e da f4 3c 3e 94 24 bd
       0.03851563 -0.08132557 0.029889163 -0.040180437
0000b0 1d 6e 99 bd 72 8e 96 bc 7e 89 28 3e ce 9e 10 3c
       -0.074917056 -0.01837847 0.16458699 0.0088269245
0000c0 ba 83 55 3b 0f 9b 5a bc bc a8 31 bd bd ce 78 bc
       0.0032579736 -0.013342633 -0.04337381 -0.015186009
0000d0 83 69 0e bc 0d 99 99 bc 8f ff 24 3c 9e cb 93 3c
       -0.008692148 -0.018749738 0.010070696 0.018041428
0000e0 c0 9c 2d bc 2b 73 d8 3c 8e 0b 3a bd ac 2d a6 bd
       -0.010596454 0.026422104 -0.045421176 -0.0811418
0000f0 c2 0c ef ba 49 8b 6f 3d 0c db a9 3d ed 43 e3 3c
       -0.0018238055 0.058482442 0.08293733 0.02774235
000100 96 09 e3 3d 76 42 4f bd 68 5a 56 bd 87 7c 42 3c
       0.11085813 -0.05060049 -0.052332312 0.01187051
000110 0e 37 81 3d bd 65 9b bb 8f 76 8b bd e1 3b 9b 3c
       0.06309329 -0.0047423528 -0.06809723 0.01894945
000120 92 03 7f bb 65 dd 92 bd 3c ed 86 3d 54 f7 e0 bc
       -0.003891204 -0.07171134 0.065882176 -0.027461685
000130 bc cf 35 bd e8 02 af 3d b4 50 8f bc e9 e2 81 bd
       -0.044387564 0.08545476 -0.017494537 -0.06342108
000140 0f de 92 3d 73 5a 93 3d c8 5c 70 3c 0b 97 67 3d
       0.071712606 0.07194986 0.014670558 0.05654053
000150 22 b7 94 3d 96 91 dd bb 3e 26 3c bd 61 c5 c2 3d
       0.07261492 -0.00676174 -0.045934908 0.09510303
000160 94 87 13 3e 19 64 68 3b e4 75 52 3d c6 f6 91 3c
       0.14407188 0.0035460053 0.05138196 0.017817866
000170 73 9d 59 3c 77 98 40 3c 2a 7f 3d 3d 06 61 84 3d
       0.013282168 0.0117551 0.04626385 0.06463818
000180 fc 05 47 bd 8f b8 45 bd be c5 0a 3d 3e 73 46 3d
       -0.04858969 -0.048271712 0.033879988 0.048449747
000190 ee de 84 3d c1 f8 64 3d 46 bd de 3c fd e8 87 3c
       0.06487833 0.055901293 0.027189862 0.01659059
0001a0 74 93 9b 3d 58 01 31 3d 12 79 1b 3d 2e 63 55 3d
       0.07596484 0.043214172 0.03795726 0.05209654
0001b0 e8 e0 93 3b a6 f8 79 3c d8 bb 7d 3c aa 55 b2 3d
       0.004512895 0.015257036 0.01548668 0.087077454
0001c0 94 1e 4d 3b 0b 1a a1 bc b2 9f 4d 3c cf 97 92 3b
       0.0031298744 -0.019665739 0.012550281 0.0044736634
0001d0 09 6c 51 bd 4e 99 07 bc c0 37 02 3d 74 84 89 3d
       -0.05112842 -0.008276297 0.03179145 0.067147166
0001e0 c6 e7 50 bd 00 cb bc 3d ac a3 9d 3c 3d d2 da 3c
       -0.051002286 0.09218407 0.019243084 0.026711578
0001f0 46 63 b3 3a 8f ca 3b bd b7 00 70 bc ee 49 61 3d
       0.0013686202 -0.04584747 -0.014648608 0.055002145
000200 ef 15 59 3d 50 cb 22 bd 3a 35 2d 3d 67 88 89 3d
       0.052999433 -0.039744675 0.04228709 0.0671547
000210 a2 90 13 bd d6 01 1b 3d 15 f0 3a 3d f5 98 12 bc
       -0.036026604 0.037843548 0.045639116 -0.008947601
000220 e3 38 a6 3c bd 32 93 bb 8d 37 30 3d 02 6b fa bc
       0.020290798 -0.0044921325 0.043021727 -0.030568603
000230 74 ea 42 3c 16 f1 c8 3c 32 44 9e 3d 1f 74 b1 3d
       0.011896718 0.024529021 0.07727851 0.086647265
000240 51 ba 1d 3c bc 86 92 3d 3d 23 05 3d 0a 49 b7 3d
       0.009626941 0.07154605 0.03250431 0.08949478
000250 1b 12 2c 3d 73 d7 15 3d 2d 83 be 3d 65 70 52 3d
       0.042009454 0.03658242 0.093023635 0.05137672
000260 af b8 b3 3d 2a 12 d3 3d e6 27 c2 bc 6b 26 9e 3d
       0.0877546 0.10306199 -0.023700666 0.077221714
000270 7f d6 ae 3d 61 64 22 bc 51 5a e9 3c 65 a2 2a bc
       0.08537006 -0.0099116275 0.028485449 -0.010414694
000280 92 f0 8a bc da 03 28 3d 3f bf 24 3c e5 68 35 3c
       -0.016960416 0.041019298 0.010055362 0.011072372
000290 3a c8 6b 3c e6 a1 3a bc 73 4d 22 3b f2 3e e1 ba
       0.014390999 -0.011391139 0.0024765402 -0.0017184897
0002a0 1c 6e 84 bd b7 68 6b bd 67 71 c3 3c 36 40 bf bd
       -0.06466314 -0.05747291 0.023857785 -0.09338419
0002b0 9f af 40 bc 09 d4 02 3e 85 16 b4 3c d0 ae 09 3d
       -0.011760621 0.12776197 0.021983394 0.03361398
0002c0 3e cc aa bc 7c d0 b4 3d a7 6d bd 3a cd 9f 0f bd
       -0.020849343 0.08828828 0.0014452235 -0.035064507
0002d0 dc 08 e2 3c 75 94 a6 3d 25 85 3b 3d f0 1a 13 bd
       0.027592115 0.08133785 0.045781273 -0.03591436
0002e0 f3 65 28 bd 65 7a 21 bd b6 94 58 bd 03 a2 00 3d
       -0.04111285 -0.039423365 -0.052876197 0.031404506
0002f0 19 d7 30 3c 08 69 ce bb db 43 16 3a bf e7 d8 bd
       0.010793471 -0.006299142 0.0005732157 -0.10591077
000300 5e 4c 97 3d ac 53 b6 bc a6 14 16 3d e9 85 39 3d
       0.07387613 -0.022256695 0.036640786 0.045293722
000310 a7 68 09 bc ad 02 93 3d af 34 12 bc 59 05 08 3c
       -0.0083867675 0.07178245 -0.008923694 0.008302056
000320 a9 66 e3 3c b9 99 d2 bc 33 3b 76 bd 89 6c d8 38
       0.027758913 -0.025708066 -0.06011505 0.00010319899
000330 5b 8a f6 bd 0d d4 8c bd 58 1e cd bb b1 76 25 bc
       -0.12038108 -0.06876383 -0.006259721 -0.010099099
000340 c4 03 a8 3c 40 90 22 3c 79 c8 ab 3d b3 d9 3e 3b
       0.020509608 0.009922087 0.083878465 0.0029121458
000350 27 bd c2 3d d2 9d 2e 3d ea 62 fb bc 24 e5 a1 3b
       0.09508734 0.042630978 -0.030686814 0.004940646
000360 ca ee 03 3e 28 62 0b bd 9e 57 40 bd 84 e9 bf 3d
       0.1288406 -0.034029156 -0.04695856 0.093707114
000370 e5 5e 92 bc a3 d2 78 3a 72 bd 12 3e 9f 5e cb bb
       -0.017867515 0.00094918365 0.1433008 -0.006206348
000380 ef ba ec 3c 22 94 21 3d 3e 6a 9a bc 32 36 37 3c
       0.02889773 0.03944791 -0.018849488 0.011182355
000390 cb f4 fe 3d 7d 46 e0 3c 07 82 56 bd 99 ec 7e bb
       0.12449034 0.027377361 -0.052370097 -0.0038898347
0003a0 01 b1 00 3c 1d 89 2f 3d 56 af 00 3d 5a 0d bb 3d
       0.007854701 0.04285537 0.031417213 0.09133406
0003b0 04 67 04 3c 3e 72 b2 3c 9a 3e 58 bd 80 8e ce bd
       0.008081201 0.02178299 -0.052794077 -0.100857735
0003c0 55 9b 1e 3d 25 fe f6 3c 9a 6b bc 3d 17 d9 f7 bc
       0.038722355 0.030150482 0.09200211 -0.030254884
0003d0 08 82 a3 3d 69 60 35 bc e1 01 5d ba ed 71 20 bc
       0.07983786 -0.011070349 -0.0008430761 -0.009792787
0003e0 fa fb 7c 3d 03 42 09 3c e1 ec 1b 3b 72 12 04 bd
       0.06176374 0.008377555 0.0023792314 -0.032244153
0003f0 15 53 4d 3d c1 c3 13 3d 2a ab c8 3b 17 76 6a 3d
       0.05012806 0.036075357 0.00612392 0.057241526

3.weight f4 [10, 256]
000000 d4 5b 50 be cc a8 e9 3d c6 39 d3 3d ca d9 82 3d
       -0.2034753 0.114091486 0.10313754 0.06389196
000010 ff 73 20 be b6 9b aa bd 7e 02 9d be f7 f2 0c bc
       -0.15669249 -0.08330481 -0.30665964 -0.008602849
000020 9f f3 b9 bc 4a 9a 92 3d 49 03 e8 3c f4 fd 1b be
       -0.022699175 0.071583346 0.028321879 -0.15233594
000030 e5 cd 40 be 6d 3d 13 bd 19 37 04 be 7e 3e 46 bd
       -0.18828543 -0.035947252 -0.12911643 -0.04839944
000040 a9 7a ad 3d 92 90 00 3c bf 1d 63 3d 39 ba 24 bc
       0.08470661 0.007846968 0.05544829 -0.010054165
000050 7f ed 8c be 94 52 c7 bd b3 25 ee 3d a9 10 9f 3d
       -0.27524945 -0.097325474 0.11628284 0.077668495
000060 d5 30 e5 3c 01 90 5a 3e 03 28 e4 bd 55 0f 65 bd
       0.027977386 0.21343996 -0.11140444 -0.055922825
000070 50 bb e1 3c ab 29 30 3c 56 42 d8 3c ab ad 41 be
       0.027555138 0.010752122 0.026398819 -0.18913905
000080 3d f0 2f 3d ff 47 bd bd 08 32 c8 bd 4b 7a ce bd
       0.04295372 -0.09242248 -0.09775168 -0.10081919
000090 14 2e 32 bd 90 3c 4b bd fd 7e 03 be 56 4e 89 3d
       -0.043500975 -0.049618304 -0.12841411 0.067043945
0000a0 c9 b6 a1 3d 77 99 7b 3d 9d 8b d9 3b f7 9a 12 3e
       0.078961916 0.061425652 0.0066389577 0.14316927
0000b0 c8 fe 40 3e 2c b0 80 3d 46 92 58 be 0d ba f5 bc
       0.18847191 0.06283602 -0.21149549 -0.029995942
0000c0 67 d6 23 3e f4 d9 21 3e 68 55 48 3e d8 c3 2a bd
       0.15999757 0.15805799 0.1956383 -0.041690677
0000d0 fc 1e 64 3d 9a 09 10 3e 2f 58 93 3d 23 36 a0 bb
       0.05569361 0.14066163 0.07194554 -0.004889266
0000e0 15 7e 71 3d 82 84 0e bd c0 a5 b0 3d fa c3 0f 3e
       0.05895813 -0.034794338 0.08625364 0.14039603
0000f0 b2 4d 07 3d 1d a0 9e bd 44 f7 b5 3d 30 79 39 be
       0.03303308 -0.07745383 0.08885053 -0.18112636
000100 1f 01 f6 be 0b ca 8b 3c 67 f8 9f bd 2f 12 34 be
       -0.4804773 0.017064115 -0.07811051 -0.17585061
000110 d4 55 6a be 00 cd e4 3d e1 ce 00 3e 76 a9 3a 3e
       -0.22884303 0.11171913 0.12578918 0.18228707
000120 76 7b 4e 3e b9 9c 7a bd ca 64 65 be 1e 81 b3 ba
       0.20164284 -0.06118462 -0.22401729 -0.0013695096
000130 0c 1a a0 bc 8a 4d 75 be 5b 09 35 bd c6 90 07 bd
       -0.01954367 -0.2395536 -0.044198375 -0.03309705
000140 48 0c ad bd 62 6a ed 3c ee 60 c4 bd 71 36 a8 bb
       -0.08449608 0.028981391 -0.095888 -0.005133443
000150 8c ef 9d bd d1 65 6d 3d 65 60 82 3e a8 06 b5 3d
       -0.077117056 0.057958428 0.25464168 0.0883916
000160 61 0e 2c 3e 36 f7 e6 3d c0 f0 b2 bd bd 24 59 3d
       0.1680236 0.112776205 -0.08737326 0.053013552
000170 a7 4c 31 bd c8 6a 80 3d 55 51 ed 3d c5 9e 64 3e
       -0.043285992 0.06270367 0.115877785 0.22326191
000180 9d 6e 5d 3e cc bd e2 be 12 07 db bc 32 47 8a bc
       0.21624227 -0.4428543 -0.02673677 -0.016879652
000190 38 fb a8 bd 4f fd f3 bd 69 c1 f7 bc 48 d4 6d be
       -0.08251041 -0.11913549 -0.030243592 -0.2322551
0001a0 c8 5f 7b bd 03 52 91 3e 9c 68 5d bd 7e 45 34 3d
       -0.06137064 0.28382882 -0.05405484 0.044011585
0001b0 18 36 be 3d 7c 80 a4 bd 48 f5 47 3e fc fc 4f bd
       0.09287661 -0.08032319 0.19527161 -0.050778374
0001c0 98 ce 82 3e a9 15 16 3e a4 84 c1 3d 9d ee c9 3c
       0.25548244 0.146567 0.09449127 0.024649912
0001d0 52 ed 71 be a9 b4 de bc 9e 57 03 3e c6 68 13 be
       -0.23625687 -0.027185755 0.12826392 -0.14395437
0001e0 73 48 c3 3d f3 09 99 be a3 91 ad bc d6 28 a9 3d
       0.09535303 -0.29890403 -0.021187609 0.08259742
0001f0 b1 51 8a 3c be c2 f2 3d d4 70 e5 3d 1a 77 0c 3e
       0.016884657 0.118535504 0.11203161 0.13717309
000200 d4 e2 50 be c0 09 08 3e b6 c6 e5 3d d0 c8 09 bd
       -0.20399028 0.1328497 0.11219542 -0.033638775
000210 e0 9c ef 3d 53 11 82 3d 37 91 12 3d 10 17 62 be
       0.116998434 0.063509606 0.03578302 -0.2207911
000220 b4 9f 77 bd 01 92 d1 3c 1c 78 6f be bd 8e 14 be
       -0.06045504 0.025582315 -0.23385662 -0.14507575
000230 c3 01 0c bd 49 9c 2e be 66 c0 dc 3d 04 16 1d bd
       -0.034181368 -0.17051806 0.107788846 -0.038351074
000240 5c 7f bf be e2 dd 95 be 71 6e 21 be 8a e5 c6 bd
       -0.37401855 -0.29270846 -0.15764786 -0.0971175
000250 0a f9 ce 3b db ab e2 bd 4d 3a 95 3d d6 24 cf bd
       0.006316309 -0.11067935 0.072865106 -0.10114448
000260 ea 12 21 3e dd fa 48 be 28 5b 56 bb 00 7f 90 3e
       0.15729871 -0.19626947 -0.0032708142 0.28221893
000270 3e 98 e6 3d f9 f6 f4 bd 4c 9a 88 3e 35 30 42 3e
       0.11259507 -0.11961169 0.2668022 0.18963702
000280 74 6a 49 be 4f b5 78 3d a8 00 0f be e4 be 27 bc
       -0.19669515 0.060719784 -0.13965094 -0.010238383
000290 e4 57 f6 3c 16 29 b4 bc 22 5c 92 bb 5e 52 6f bd
       0.030071206 -0.021992248 -0.0044665495 -0.05842816
0002a0 d5 9b 86 3e de 1a 37 3e 94 b5 38 be 3d 82 be bd
       0.26290765 0.17881343 -0.18038017 -0.09302185
0002b0 9c 6e c3 bd 19 f1 3a be df 8a d1 be 0c 60 b7 be
       -0.095425814 -0.18256034 -0.40926263 -0.35815465
0002c0 80 8e 1b 3d 6b c7 54 3e 19 74 ef bd 33 cd c5 3c
       0.037977695 0.20779197 -0.11692066 0.024145698
0002d0 4e a4 65 3c 34 67 d8 bd 51 04 17 3d fc 81 5c be
       0.014016224 -0.105665594 0.03686935 -0.2153396
0002e0 b3 bf b9 3d 04 8f 12 be 20 85 15 be 4e e1 9c be
       0.09069767 -0.14312369 -0.14601564 -0.30640644
0002f0 c6 96 2c bd ec 17 e2 bc 7c a8 1c 3e 44 3c 25 3d
       -0.042135976 -0.027599297 0.15298647 0.040340677
000300 2a a5 96 be ea 16 9e be 1c b7 1a 3d e8 72 fa bc
       -0.29422885 -0.30876857 0.037772283 -0.03057237
000310 75 2e b4 bd 9c 03 e3 3d 2e 10 63 bd b1 e1 66 3c
       -0.087979235 0.11084673 -0.055435352 0.014091895
000320 26 18 79 bd 89 67 39 3d 82 03 79 3e d7 1a 96 3e
       -0.060814045 0.045264754 0.24317744 0.29317352
000330 fe 1f 34 be 38 05 9e 3e 9f fb 38 3d ed 8f 1d 3e
       -0.17590329 0.30863357 0.04516184 0.15386935
000340 d6 9e a6 be f0 bc e2 bc 17 65 3e 3d 05 ff 17 3e
       -0.32543057 -0.027677983 0.046483126 0.14843376
000350 47 f0 5e 3e 6c 62 02 bd cd ce 1f 3d b2 f1 30 be
       0.21771346 -0.031832144 0.03901558 -0.172797
000360 fa a8 25 bd dd 63 52 bd 5d 78 cf 3d ac 71 39 3d
       -0.04044435 -0.05136477 0.10130379 0.04527442
000370 0f 94 0b bd ee 3d 1c 3e 19 7d 7b be 81 5b 55 bc
       -0.034076747 0.15258 -0.2455944 -0.0130223045
000380 62 db 96 3c f8 57 c7 3c 63 fe 30 3d 3b fb ee bd
       0.018415157 0.024333939 0.043211352 -0.11669012
000390 af 41 bd bc 81 2f 94 be 14 38 4c 3e e3 8a 4f 3d
       -0.02310261 -0.28942493 0.19943267 0.050669562
0003a0 a5 22 3e 3d 66 2c 93 bd 98 95 06 bd 8d 12 a5 3c
       0.04641976 -0.07186203 -0.032857507 0.020150447
0003b0 14 a8 21 3e 0f 26 b7 bd 39 c4 3a 3e b5 c1 7e bd
       0.15786773 -0.08942806 0.18238916 -0.062196452
0003c0 c4 02 1f 3e 7b 74 18 3d ab 5f a1 be 6a 45 bc bd
       0.15528399 0.03722046 -0.315183 -0.09192927
0003d0 00 6a 52 bd 0f 7b 77 3d 0c cc 28 3e 48 a9 65 3e
       -0.05137062 0.060420092 0.16484088 0.22427857
0003e0 10 9f 82 bd 92 52 38 be f8 16 8b 3e d9 ad 39 3c
       -0.06377995 -0.18000248 0.2716596 0.011332952
0003f0 d0 42 c1 bd e2 ce 23 be 57 aa e7 3e 9d 79 e7 bd
       -0.094365716 -0.15996888 0.45247146 -0.11302493

3.bias f4 [10]
000000 da 8f 4c be 54 ab 0e 3e 81 80 c0 bd 7f 55 1f be
       -0.1997675 0.13932544 -0.0939951 -0.15559958
000010 df 39 90 3d 3d dd b4 3e 8b cd 8c 3c a8 a8 13 3e
       0.07042288 0.3532504 0.017187854 0.14419806
000020 a5 d3 87 be 22 a8 ba bd
       -0.2652866 -0.091141
